exp1/model_online.pt (torch, 716946 bytes, 66 tensors)

cnn.conv1.0.weight f4 [1, 1, 3, 3]
-0.28968942 0.02214359 -0.23384044 -0.1511597 -0.21770726 0.12864295 -0.41545188 -0.39824602
0.16296303
00000000: 2c52 94be 7966 b53c de73 6fbe 9cc9 1abe
00000010: a7ee 5ebe faba 033e 1cb6 d4be e7e6 cbbe
00000020: c8df 263e

cnn.conv2_x.0.residual_function.0.weight f4 [10, 1, 3, 3]
0.2891346 0.12627754 -0.16032323 0.19687556 -0.17836353 0.025588777 -0.12713821 -0.22256415
0.0527677 0.15044577 -0.12787543 -0.33538306 -0.15177023 -0.05073258 -0.25996268 -0.18153062
0.20251839 0.08134578 0.2157079 -0.13865876 -0.28958917 -0.2755567 -0.14944263 -0.012106281
-0.19909391 -0.16204196 0.1368888 -0.255604 0.14195886 -0.24644141 0.006495617 0.04943699
-0.06744595 0.02175772 0.35331526 -0.0047808997 0.1876535 0.04852679 -0.31995338 0.3090566
0.18047792 0.049144704 -0.08386292 0.07521174 0.24921991 0.06525669 0.26115683 0.26308307
-0.22540556 0.16565485 -0.23566547 0.3170808 0.26734376 0.10628043 -0.22183828 -0.38047317
-0.39115274 -0.28929165 -0.18517323 0.292063 -0.28577015 0.2951482 -0.12321047 -0.11703137
-0.20630334 -0.19103542 0.08954957 0.15391597 0.20023777 0.20952564 0.16770858 0.24191841
-0.054660488 -0.34826246 -0.27571732 0.1904771 -0.2876188 -0.029753914 0.24329852 0.27562308
0.28600445 0.29357865 0.30127466 0.10839289 -0.073437326 0.28801954 0.2470153 0.22495848
0.31485024 0.0048938915
00000000: 7309 943e e64e 013e c62b 24be bf99 493e
00000010: eea4 36be 8e9f d13c 8530 02be dbe7 63be
00000020: f222 583d 750e 1a3e c7f1 02be 54b7 abbe
00000030: a869 1bbe f7cc 4fbd d419 85be 2ae3 39be
00000040: fb60 4f3e 9e98 a63d 88e2 5c3e 90fc 0dbe
00000050: 0845 94be c515 8dbe 7d07 19be 6c59 46bc
00000060: 46df 4bbe 54ee 25be 942c 0c3e 87de 82be
00000070: aa5d 113e 235b 7cbe 2fd9 d43b 717e 4a3d
00000080: 1a21 8abd 3f3d b23c bde5 b43e 18a9 9cbb
00000090: 3d28 403e 07c4 463d eed0 a3be ab3c 9e3e
000000a0: 34cf 383e f54b 493d 53c0 abbd 9d08 9a3d
000000b0: 8133 7f3e 4da5 853d 59b6 853e d3b2 863e
000000c0: b7d0 66be 6da1 293e 4a52 71be 6a58 a23e
000000d0: 48e1 883e 8ea9 d93d 9329 63be 61cd c2be
000000e0: 2c45 c8be 091e 94be 0d9e 3dbe 4889 953e
000000f0: 7750 92be aa1d 973e c555 fcbd 25ae efbd
00000100: 2f41 53be ca9e 43be c465 b73d 269c 1d3e
00000110: 210b 4d3e e48d 563e ccbb 2b3e 76b9 773e
00000120: ade3 5fbd 754f b2be d22a 8dbe 6e0c 433e
00000130: c542 93be 7bbe f3bc 3f23 793e 781e 8d3e
00000140: 2d6f 923e f14f 963e ac40 9a3e 17fd dd3d
00000150: 4f66 96bd 4c77 933e 94f1 7c3e 845b 663e
00000160: 0d34 a13e f05c a03b

cnn.conv2_x.0.residual_function.1.weight f4 [10]
0.9696995 0.9744116 0.93781227 1.0061232 0.9963592 0.98974943 1.0203869 0.9974463
1.0597025 1.0194052
00000000: 3a3e 783f 0a73 793f 7714 703f a5c8 803f
00000010: 6611 7f3f 3860 7d3f 0a9c 823f a458 7f3f
00000020: 55a4 873f df7b 823f

cnn.conv2_x.0.residual_function.1.bias f4 [10]
-0.009178249 -0.08693379 -0.0876975 0.019358182 -0.044108123 -0.05051894 -0.07652715 -0.03371219
-0.016060289 0.06951457
00000000: 5e60 16bc 580a b2bd bf9a b3bd 0d95 9e3c
00000010: b8aa 34bd f3ec 4ebd 44ba 9cbd cb15 0abd
00000020: de90 83bc a85d 8e3d

cnn.conv2_x.0.residual_function.1.running_mean f4 [10]
6.587888e-05 -0.16641103 -0.2168531 0.00093013205 0.17291842 0.24286178 -0.3180362 0.13602479
-0.0014219799 0.42331862
00000000: 7428 8a38 a767 2abe bd0e 5ebe 1bd4 733a
00000010: 8711 313e c2b0 783e a4d5 a2be 154a 0b3e
00000020: ba61 baba 38bd d83e

cnn.conv2_x.0.residual_function.1.running_var f4 [10]
0.004248558 0.005163619 0.0057876827 0.0036774706 0.0047859573 0.006556031 0.011935884 0.003924118
0.0068561365 0.01019593
00000000: 7d37 8b3b 9333 a93b 9aa6 bd3b b801 713b
00000010: 85d3 9c3b f9d3 d63b ba8e 433c e395 803b
00000020: 71a9 e03b d40c 273c

cnn.conv2_x.0.residual_function.3.weight f4 [10, 10, 3, 3]
-0.022915287 -0.018689653 -0.08186624 -0.054700207 0.029764224 -0.058144297 -0.052038357 -0.11499033
-0.020319989 0.08077128 -0.04839942 0.06992945 0.06241757 -0.069935285 -0.004785324 0.0509201
-0.032235388 0.060535625 -0.085078806 0.00743578 0.063335516 0.056148812 0.04623838 0.0771886
0.05563239 0.028814876 -0.07899189 0.0036789586 0.09187866 -0.099097386 -0.009025433 -0.07096868
-0.016592806 -0.14072381 -0.08956764 -0.071272306 -0.018747205 0.04268415 -0.07907559 0.047463294
0.025796477 -0.016315827 -0.10050973 -0.037643515 0.08199418 0.019247407 0.07694913 0.043574013
-0.0773878 -0.041824102 -0.07578637 -0.021268424 0.05480107 0.07031971 0.041902877 0.034229986
0.16524497 -0.054326944 0.02294448 -0.050299186 -0.027814796 0.0005409422 0.06479623 -0.044329688
0.035418548 -0.057731867 0.018170524 0.08078697 0.076994695 -0.07525045 -0.090416804 -0.09688257
-0.062306166 -0.070774816 -0.15739004 0.032358862 -0.050037 -0.09314978 -0.03808173 0.038907796
-0.023004377 -0.0155559955 0.08084267 -0.04578815 0.1082481 0.085195445 -0.019576333 0.097263046
0.049533483 0.02015035 0.028385958 0.012480484 -0.044027284 -0.053799856 0.1135144 0.03648442
0.0806733 0.012974454 0.11786012 0.08885749 0.0025235708 0.064573705 -0.050574828 -0.0491578
0.016784362 0.11484669 -0.016603077 0.08343559 0.048046727 -0.01795642 -0.029468266 0.05337065
-0.03076956 -0.06291891 -0.044510968 -0.0207857 0.034078088 -0.010802746 0.060053136 -0.09409625
0.0154271545 0.027844176 -0.065155074 -0.05259951 -0.043486934 0.038578622 -0.036199275 -0.04564996
0.04269159 0.002371765 0.07769609 0.071477495 0.009318647 0.13275908 0.11523866 -0.0015340925
-0.037093032 -0.048451684 0.09182913 0.0917017 0.035766333 0.101391256 0.10111343 -0.040844683
0.036284536 0.065403 -0.05080295 -0.076628305 -0.024458356 -0.037301578 0.08125435 0.019081669
-0.020962937 -0.010775507 0.08160405 0.032186005 -0.06839758 0.038610585 0.026428986 -0.022255335
-0.06113668 -0.0655449 0.03411402 -0.10643385 -0.080502674 0.1138489 0.021639192 0.045800954
0.03294276 -0.00731719 0.028285965 -0.06718788 -0.059456114 -0.012247752 -0.06963002 0.058550514
-0.08270972 -0.0055808197 0.09818138 4.3175594e-05 0.03529908 0.05218048 -0.09905128 -0.115609735
-0.010009673 -0.19616593 0.0675157 -0.008303233 -0.06520619 -0.081971966 -0.098996386 0.07496825
0.03104215 -0.038366262 -0.022749986 0.030794172 0.07926295 0.028945833 -0.01254621 0.055460315
0.10071855 0.0741571 -0.013242133 -0.05689125 0.028281655 0.013270932 -0.037789833 -0.089047976
0.016452622 -0.026471658 0.099560685 -0.11485696 -0.04018631 0.019266015 -0.12435713 -0.09020487
0.01990045 -0.05922904 0.037067145 0.023539612 0.018394073 0.040809724 -0.07160479 0.004063853
0.02822724 0.04535072 -0.11676895 0.0559445 -0.025710756 -0.06794693 0.08344325 -0.07496635
0.028616909 0.09672212 -0.011014539 -0.0045552626 -0.04973583 0.043243315 0.008300524 0.014021023
-0.03207326 0.053349975 0.02141951 -0.048112527 -0.034379784 0.0018019887 0.10690389 -0.056818996
0.025988398 0.098209485 0.07849856 0.055438347 0.06543672 0.0014806989 -0.067295425 -0.102392904
00000000: d7b8 bbbc 0b1b 99bc 7da9 a7bd 530d 60bd
00000010: 1ad4 f33c b728 6ebd 2c26 55bd 0d80 ebbd
00000020: 1b76 a6bc 6a6b a53d 783e 46bd 2c37 8f3d
00000030: 91a9 7f3d 3b3a 8fbd 35ce 9cbb 9891 503d
00000040: 4109 04bd 34f4 773d cc3d aebd d8a7 f33b
00000050: 0db6 813d 4cfc 653d 7564 3d3d 0f15 9e3d
00000060: cade 633d 2d0d ec3c 80c6 a1bd af1a 713b
00000070: e12a bc3d 92f3 cabd 69df 13bc 0758 91bd
00000080: a3ed 87bc e719 10be 3d6f b7bd 37f7 91bd
00000090: bd93 99bc 93d5 2e3d 62f2 a1bd df68 423d
000000a0: 2253 d33c c5a8 85bc 0cd8 cdbd 1630 1abd
000000b0: 91ec a73d bdac 9d3c 8197 9d3d aa7a 323d
000000c0: 7f7d 9ebd c04f 2bbd e235 9bbd 1e3b aebc
000000d0: 1677 603d c803 903d 5aa2 2b3d be34 0c3d
000000e0: fa35 293e ee85 5ebd 10f6 bb3c 8506 4ebd
000000f0: dbdb e3bc 04ce 0d3a e3b3 843d 0c93 35bd
00000100: 0a13 113d 4078 6cbd 5ada 943c a473 a53d
00000110: 65af 9d3d e81c 9abd 722c b9bd 5e6a c6bd
00000120: c034 7fbd 63f2 90bd db2a 21be ba8a 043d
00000130: 99f3 4cbd 50c5 bebd 97fb 1bbd c85d 1f3d
00000140: ad73 bcbc 93de 7ebc d790 a53d 5b8c 3bbd
00000150: 2eb1 dd3d f37a ae3d 8c5e a0bc d931 c73d
00000160: 9fe3 4a3d 5912 a53c ab89 e83c f27a 4c3c
00000170: f455 34bd 3d5d 5cbd 3d7a e83d b070 153d
00000180: 0b38 a53d ce92 543c a660 f13d eafa b53d
00000190: 7e62 253b 383f 843d 8d27 4fbd b059 49bd
000001a0: 5c7f 893c be34 eb3d 2d03 88bc 47e0 aa3d
000001b0: a5cc 443d 5819 93bc 6f67 f1bc 2f9b 5a3d
000001c0: 7210 fcbc a1db 80bd 2251 36bd c646 aabc
000001d0: 7795 0b3d 00fe 30bc 47fa 753d 89b5 c0bd
000001e0: 2dc2 7c3c 7819 e43c 0670 85bd 9572 57bd
000001f0: 5b1f 32bd 9e04 1e3d b145 14bd 74fb 3abd
00000200: 60dd 2e3d 9d6f 1b3b 211f 9f3d cb62 923d
00000210: 3dad 183c fff1 073e 3f02 ec3d 9a13 c9ba
00000220: ddee 17bd 4675 46bd e910 bc3d 1ace bb3d
00000230: b87f 123d 38a6 cf3d 8f14 cf3d c14c 27bd
00000240: 189f 143d 02f2 853d c116 50bd 4def 9cbd
00000250: e45c c8bc 8ac9 18bd ae68 a63d 2951 9c3c
00000260: 77ba abbc c18b 30bc 0620 a73d 79d5 033d
00000270: 0814 8cbd 2226 1e3d 9a81 d83c d250 b6bc
00000280: 756a 7abd 683c 86bd 25bb 0b3d fef9 d9bd
00000290: 96de a4bd 9d29 e93d ad44 b13c c899 3b3d
000002a0: fdee 063d 0ac5 efbb f8b7 e73c cd99 89bd
000002b0: 4188 73bd ccaa 48bc 2f9a 8ebd aad2 6f3d
000002c0: b763 a9bd 4fdf b6bb 5213 c93d 7117 3538
000002d0: c595 103d 33bb 553d 66db cabd ccc4 ecbd
000002e0: 9dff 23bc b9df 48be ac45 8a3d 490a 08bc
000002f0: d38a 85bd ebe0 a7bd 9ebe cabd f488 993d
00000300: 1b4c fe3c f125 1dbd 2e5e babc 0f44 fc3c
00000310: 9d54 a23d d01f ed3c 9e8e 4dbc 5b2a 633d
00000320: 8745 ce3d addf 973d 88f5 58bc cd06 69bd
00000330: eeae e73c 536e 593c 83c9 1abd c95e b6bd
00000340: a6c7 863c 17db d8bc 79e6 cb3d 203a ebbd
00000350: 669a 24bd c3d3 9d3c f3ae febd 55bd b8bd
00000360: 4506 a33c 269a 72bd b8d3 173d 25d6 c03c
00000370: 2baf 963c 1928 273d 88a5 92bd 122a 853b
00000380: d03c e73c adc1 393d 8f24 efbd 0f26 653d
00000390: 5d9f d2bc c327 8bbd 4be4 aa3d f587 99bd
000003a0: 026e ea3c 3f16 c63d 5376 34bc 5044 95bb
000003b0: ccb7 4bbd e71f 313d ecfe 073c 6fb8 653c
000003c0: 405f 03bd 8185 5a3d f877 af3c a411 45bd
000003d0: d1d1 0cbd b530 ec3a 6df0 da3d 09bb 68bd
000003e0: 9fe5 d43c 0e22 c93d dac3 a03d 5213 633d
000003f0: b003 863d 0314 c23a 2fd2 89bd 5fb3 d1bd

cnn.conv2_x.0.residual_function.4.weight f4 [10]
1.0288604 0.8601091 0.9118365 0.900054 0.9875481 1.037675 0.9504743 1.0231398
0.9665205 1.0081562
00000000: b3b1 833f 1c30 5c3f 1e6e 693f f069 663f
00000010: f4cf 7c3f 89d2 843f 4952 733f 3ff6 823f
00000020: e36d 773f 430b 813f

cnn.conv2_x.0.residual_function.4.bias f4 [10]
-0.092536286 -0.056616586 -0.07454767 -0.0035778654 -0.0928366 -0.1134152 -0.11252366 -0.08331993
-0.0867636 -0.08780849
00000000: aa83 bdbd cbe6 67bd 73ac 98bd 9f7a 6abb
00000010: 1e21 bebd 3a46 e8bd ce72 e6bd a4a3 aabd
00000020: 1db1 b1bd f0d4 b3bd

cnn.conv2_x.0.residual_function.4.running_mean f4 [10]
0.008995411 0.096082345 -0.11536895 0.025127735 -0.10069895 0.022728743 -0.115040004 -0.09796618
-0.30968896 -0.07374401
00000000: 7d61 133c d2c6 c43d 8e46 ecbd aed8 cd3c
00000010: 403b cebd a131 ba3c 189a ebbd 7ea2 c8bd
00000020: 8d8f 9ebe 1907 97bd

cnn.conv2_x.0.residual_function.4.running_var f4 [10]
0.08755914 0.22770801 0.23941158 0.12249769 0.2179625 0.06970087 0.21344544 0.19086558
0.76487035 0.11465787
00000000: 3552 b33d 4a2c 693e 4f28 753e 12e0 fa3d
00000010: 9031 5f3e 54bf 8e3d 7191 5a3e 4472 433e
00000020: 8bce 433f bfd1 ea3d

cnn.conv2_x.0.shortcut.0.weight f4 [10, 1, 1, 1]
0.87978834 -0.81910944 -0.8520083 0.49397135 -0.6464913 -0.9689065 -0.5279204 -0.08086247
-0.34881836 -0.840399
00000000: cf39 613f 28b1 51bf 371d 5abf d0e9 fc3e
00000010: 7480 25bf 420a 78bf cb25 07bf 399b a5bd
00000020: 5298 b2be 6424 57bf

cnn.conv2_x.0.shortcut.1.weight f4 [10]
0.967925 1.1106474 1.0623015 1.0536547 1.0041928 1.0566726 1.0399303 0.9984804
1.0525624 1.010775
00000000: efc9 773f b229 8e3f 7ff9 873f 28de 863f
00000010: 6489 803f 0c41 873f 701c 853f 699c 7f3f
00000020: 5dba 863f 1361 813f

cnn.conv2_x.0.shortcut.1.bias f4 [10]
-0.101292945 0.052783687 -0.0004769222 0.029892456 -0.08555859 0.11126766 -0.07557471 -0.098236606
0.14951828 -0.055659104
00000000: ad72 cfbd b533 583d 6a0b fab9 06e1 f43c
00000010: 5839 afbd 4de0 e33d eac6 9abd 4630 c9bd
00000020: 521b 193e cdfa 63bd

cnn.conv2_x.0.shortcut.1.running_mean f4 [10]
0.22046302 -0.20525227 -0.21349877 0.12377891 -0.16200018 -0.24279238 -0.13228881 -0.020263156
-0.087408476 -0.21059059
00000000: 0fc1 613e a72d 52be 6c9f 5abe cc7f fd3d
00000010: 60e3 25be 919e 78be b876 07be ebfe a5bc
00000020: 3703 b3bd 0fa5 57be

cnn.conv2_x.0.shortcut.1.running_var f4 [10]
0.010403656 0.009017597 0.009756755 0.0032795041 0.0056175343 0.012617832 0.003745941 8.788782e-05
0.0016353911 0.009492761
00000000: 1974 2a3c 8bbe 133c ccda 1f3c f3ec 563b
00000010: 4b13 b83b 06bb 4e3c 767e 753b 6a50 b838
00000020: 9f5a d63a 8787 1b3c

cnn.conv3_x.0.residual_function.0.weight f4 [16, 10, 3, 3]
0.055677224 0.04227898 0.025400298 -0.021102192 0.06280583 -0.024095427 0.038116287 0.04778418
0.15528454 -0.003888949 -0.05842478 -0.06795364 0.013335583 0.045926396 -0.033581417 -0.018313617
-0.041046184 0.04136039 -0.012137786 -0.0074851713 0.06584916 0.036745593 0.04723555 -0.0049212077
0.096131966 -0.042945333 0.014602019 0.07335504 0.04111514 -0.00078368175 0.07511121 -0.10816177
0.020470759 0.097614795 -0.07070713 0.017152898 0.12089674 -0.0055538006 0.022510353 -0.0019651188
0.07792039 -0.05904139 -0.059862733 0.023141067 -0.03343553 0.044243895 0.15431121 0.08750065
0.083096884 0.037448294 0.10817987 0.080192104 0.099428035 0.13547775 -0.046880573 0.010455853
-0.073254034 0.050248116 -0.04278056 0.05981756 -0.02960444 -0.066724904 0.018039742 0.014156161
-0.014086968 0.08961064 0.08402258 0.05783233 0.08773746 0.11527029 0.07495172 0.05991464
0.04566688 0.0035569814 0.055552106 -0.04250843 0.024929268 -0.056972437 -0.035082348 0.03904422
-0.0037819508 -0.009682857 0.1243388 0.06838016 0.110739894 -0.07285865 0.006229376 0.09938797
0.05267485 0.020702664 -0.13307503 0.05158037 -0.067875706 -0.032822534 0.02467298 -0.039396506
-0.03343721 -0.01626521 0.087979056 -0.12712714 -0.035209324 -0.06529178 0.014140166 0.07877873
0.093114465 -0.06579223 0.014384451 0.084519945 0.06993168 -0.005620047 -0.07776795 -0.017270064
-0.044014 -0.053878065 -0.07480806 0.07732914 -0.0012967411 -0.11917848 0.043091606 -0.0041305814
-0.0042390353 -0.033475094 0.04108347 -0.07969413 0.07503766 0.07238814 -0.13724153 -0.05849708
0.00011776902 0.008156408 0.049496084 0.06283566 -0.051853973 0.01640868 0.05830363 -0.009854272
0.009429464 -0.02427202 -0.0935924 -0.069861114 0.012024234 -0.08163147 0.06409412 -0.06462874
-0.08163139 0.04607021 0.030822428 -0.09737634 0.045497995 0.020529311 -0.06730756 -0.024634792
-0.03575505 -0.015156285 -0.0052735126 -0.06437012 0.009136695 -0.059604228 -0.078077614 0.039688993
0.11146687 0.08855397 -0.024916194 -0.03852313 -0.024108222 -0.027890936 -0.035283744 -0.038321204
-0.11262129 -0.056342535 0.079050474 0.03464202 -0.006747487 -0.05722815 -0.06649055 0.06520731
0.057895754 -0.13602653 -0.03066335 0.067315124 -0.037261948 0.0052205482 0.02159234 0.0020319403
-0.051572897 -0.10401403 -0.070742264 0.066974364 0.04101957 0.07307268 0.09171357 0.07214623
0.0791688 -0.014401592 -0.014406076 -0.047718134 -0.087055914 -0.071285345 -0.03217853 0.008224305
-0.031246526 0.018498411 -0.0075830985 -0.070416495 0.02902127 0.07347611 -0.08481337 -0.05767571
-0.05634069 -0.060684085 -0.06790002 -0.0667793 -0.06744733 -0.039227936 0.0045476193 -0.015353873
0.12172407 0.022672374 0.002971994 -0.06837177 -0.06740822 -0.04049278 -0.020565936 0.056798637
-0.11205467 0.048224542 0.06091956 0.012058047 0.092044435 0.029719083 0.086668774 -0.05279078
0.0038386374 -0.0977051 -0.0010200177 0.060638737 -0.032226767 -0.042260725 0.034429517 -0.038815666
0.06455879 -0.082075015 0.08821554 0.056561805 -0.014066455 0.11324838 0.0628029 0.090125516
-0.041927826 -0.020303816 -0.031652853 -0.0822015 0.046980508 0.10351821 -0.0010414142 0.109671265
00000000: cd0d 643d b92c 2d3d 4914 d03c 81de acbc
00000010: 58a0 803d c663 c5bc d31f 1c3d 58b9 433d
00000020: e902 1f3e bddd 7ebb d24e 6fbd 472b 8bbd
00000030: 7d7d 5a3c 511d 3c3d ab8c 09bd 7006 96bc
00000040: 0b20 28bd 8369 293d 90dd 46bc 2b46 f5bb
00000050: eddb 863d 8c82 163d 107a 413d 1542 a1bb
00000060: d6e0 c43d 72e7 2fbd 4f3d 6f3c 2b3b 963d
00000070: 5968 283d fe6f 4dba e8d3 993d eb83 ddbd
00000080: 4bb2 a73c 44ea c73d e6ce 90bd 3c84 8c3c
00000090: b698 f73d a8fc b5bb a267 b83c 39c9 00bb
000000a0: ba94 9f3d 62d5 71bd a032 75bd 5692 bd3c
000000b0: b2f3 08bd 1639 353d c203 1e3e 8a33 b33d
000000c0: b32e aa3d 6263 193d 688d dd3d c23b a43d
000000d0: eda0 cb3d aeba 0a3e d805 40bd 074f 2b3c
000000e0: 3606 96bd f8d0 4d3d ab3a 2fbd 4203 753d
000000f0: 0385 f2bc 11a7 88bd 15c8 933c 3eef 673c
00000100: 07cd 66bc c985 b73d 0814 ac3d 98e1 6c3d
00000110: b3af b33d d412 ec3d 4a80 993d 0e69 753d
00000120: 320d 3b3d 3f1c 693b 9b8a 633d 521d 2ebd
00000130: 7738 cc3c ee5b 69bd 82b2 0fbd d5ec 1f3d
00000140: 9bda 77bb d9a4 1ebc 57a5 fe3d e60a 8c3d
00000150: 99cb e23d ea36 95bd cb1f cc3b ec8b cb3d
00000160: 95c1 573d a298 a93c d244 08be f045 533d
00000170: 6b02 8bbd ec70 06bd fd1e ca3c 3b5e 21bd
00000180: 75f5 08bd 9e3e 85bc 5d2e b43d 9e2d 02be
00000190: a737 10bd b2b7 85bd 28ac 673c be56 a13d
000001a0: ccb2 be3d 14be 86bd c3ac 6b3c cb18 ad3d
000001b0: 5738 8f3d 5f28 b8bb ce44 9fbd f379 8dbc
000001c0: 0648 34bd 3faf 5cbd f834 99bd bd5e 9e3d
000001d0: 69f7 a9ba d913 f4bd d380 303d d459 87bb
000001e0: 9be7 8abb 2e1d 09bd 2447 283d ad36 a3bd
000001f0: 58ad 993d 3c40 943d 0b89 0cbe a29a 6fbd
00000200: c3fa f638 74a2 053c 68bc 4a3d fcaf 803d
00000210: d564 54bd 7f6b 863c cacf 6e3d d073 21bc
00000220: 0a7e 1a3c 1ed6 c6bc 5fad bfbd 5813 8fbd
00000230: 4b01 453c 662e a7bd c743 833d 135c 84bd
00000240: 5c2e a7bd 1eb4 3c3d 517f fc3c 3f6d c7bd
00000250: 1b5c 3a3d 162d a83c 8cd8 89bd e7ce c9bc
00000260: e373 12bd 1152 78bc 6ecd acbb 7bd4 83bd
00000270: 14b2 153c 9023 74bd 28e7 9fbd ed90 223d
00000280: be48 e43d c95b b53d 0c1d ccbc 6eca 1dbd
00000290: 9b7e c5bc 887b e4bc b085 10bd b2f6 1cbd
000002a0: fea5 e6bd 6ec7 66bd 37e5 a13d cae4 0d3d
000002b0: 061a ddbb 1168 6abd 332c 88bd 698b 853d
000002c0: 1924 6d3d 8a4a 0bbe b531 fbbc 83dc 893d
000002d0: fc9f 18bd 2211 ab3b 6be2 b03c 4d2a 053b
000002e0: 1a3e 53bd 4f05 d5bd 52e1 90bd db29 893d
000002f0: 2304 283d 21a7 953d 53d4 bb3d 67c1 933d
00000300: 4023 a23d a8f4 6bbc 7607 6cbc 1774 43bd
00000310: 5f4a b2bd 0dfe 91bd a2cd 03bd 3cbf 063c
00000320: b7f8 ffbc fb89 973c a47b f8bb 8636 90bd
00000330: 04be ed3c a57a 963d a2b2 adbd 5e3d 6cbd
00000340: 7fc5 66bd e08f 78bd 2a0f 8bbd 96c3 88bd
00000350: d321 8abd 79ad 20bd 3204 953b d08e 7bbc
00000360: 784a f93d 6abb b93c c9c5 423b 8006 8cbd
00000370: 520d 8abd c2db 25bd e579 a8bc b0a5 683d
00000380: eb7c e5bd 1987 453d ca86 793d 1d8f 453c
00000390: cb81 bc3d 6f75 f33c 667f b13d 253b 58bd
000003a0: a691 7b3b 9d19 c8bd 1db2 85ba 5360 783d
000003b0: 3700 04bd 9519 2dbd f705 0d3d 2dfd 1ebd
000003c0: 6637 843d f216 a8bd 59aa b43d 5aad 673d
000003d0: fd76 66bc c4ee e73d cf9e 803d ba93 b83d
000003e0: 83bc 2bbd 3054 a6bc 6ca6 01bd 4359 a8bd
000003f0: a26e 403d 5b01 d43d 1080 88ba 549b e03d

cnn.conv3_x.0.residual_function.1.weight f4 [16]
0.9734797 0.9975821 0.9996252 1.0218608 0.96060157 0.971108 1.0151244 0.97786134
1.0422746 0.974053 0.9914616 1.0482404 0.95681554 0.9877336 0.9732952 1.0358639
00000000: f735 793f 8a61 7f3f 70e7 7f3f 56cc 823f
00000010: fce9 753f 899a 783f 99ef 813f 1f55 7a3f
00000020: 4169 853f 8a5b 793f 6dd0 7d3f be2c 863f
00000030: ddf1 743f 1cdc 7c3f e029 793f 3097 843f

cnn.conv3_x.0.residual_function.1.bias f4 [16]
-0.012568002 0.045544412 -0.033128995 -0.109982826 -0.031335045 -0.025683982 0.013894309 -0.004258134
-0.10321021 0.040740117 0.06996612 0.081973225 -0.05346111 0.030159708 -0.08330967 -0.10896296
00000000: 05ea 4dbc c78c 3a3d 45b2 07bd ad3e e1bd
00000010: 2d59 00bd 3767 d2bc f5a4 633c d187 8bbb
00000020: e05f d3bd 1cdf 263d 664a 8f3d 94e1 a73d
00000030: 09fa 5abd 7e11 f73c 439e aabd f927 dfbd

cnn.conv3_x.0.residual_function.1.running_mean f4 [16]
0.5621856 -0.2625845 -0.057355355 0.23111276 0.35707465 -0.04420134 -0.34035093 -0.24407777
0.32338986 0.20405422 0.24576023 -0.40892208 -0.22542715 -0.037247412 -0.25319704 0.43854484
00000000: 65eb 0f3f 7a71 86be 73ed 6abd d3a8 6c3e
00000010: 7dd2 b63e 770c 35bd 7a42 aebe 86ef 79be
00000020: 5b93 a53e 97f3 503e 92a8 7b3e 3c5e d1be
00000030: 60d6 66be be90 18bd 0ba3 81be f388 e03e

cnn.conv3_x.0.residual_function.1.running_var f4 [16]
0.8031122 0.47254777 0.47262332 0.3214234 0.79952383 0.31204483 0.40246594 0.43544325
0.47165936 0.33656764 0.40412924 0.79067504 0.23305725 0.25377655 0.19938987 0.5065285
00000000: c398 4d3f c8f1 f13e affb f13e 9c91 a43e
00000010: 98ad 4c3f 57c4 9f3e 0410 ce3e 6bf2 de3e
00000020: 567d f13e 9852 ac3e 07ea ce3e ae69 4a3f
00000030: 8fa6 6e3e 00ef 813e dc2c 4c3e daab 013f

cnn.conv3_x.0.residual_function.3.weight f4 [16, 16, 3, 3]
-0.057688322 0.011958665 -0.07612411 -0.062392898 0.026638335 0.022989174 0.035581116 -0.011511972
0.0046217646 0.015444392 -0.00076429703 -0.03765382 0.053531528 -0.066655725 -0.030762747 0.024577739
0.0013779259 0.040479667 -0.049066715 -0.034878965 -0.0602109 0.06203078 -0.0257116 -0.06511374
0.057220977 -0.03001802 -0.058302347 -0.02623874 -0.035473704 0.038605537 0.016669242 -0.07604531
-0.04929624 0.006332638 -0.020126231 -0.052591145 0.085150346 0.044168685 0.018980138 -0.044350475
0.08564654 -0.043002885 -0.060522832 0.0014764535 -0.09662811 -0.08106098 -0.0049576634 -0.026540224
-0.041003063 -0.026475385 0.07113972 -0.030123554 -0.03321141 0.017216126 -0.0026632124 0.040423013
0.0737559 0.009538291 0.009139117 0.0595306 -0.00080362073 0.053355675 0.009643514 -0.04420237
-0.008538343 -0.044372253 -0.07653213 -0.05935638 -0.061215565 -0.07057664 -0.054456413 0.0015777821
0.011289862 -0.04045822 -0.06990639 -0.056326706 -0.038940474 -0.08334428 -0.10238113 0.007208504
-0.056522865 0.06520453 0.023890816 -0.03256907 0.07187357 -0.015785517 -0.06414961 -0.013563664
0.07324898 -0.025974018 0.035688236 0.06808027 0.023017678 -0.044998102 0.032243803 0.050861366
0.045315925 0.023338864 0.0026103328 -0.121803544 -0.14086322 -0.040908072 0.014713329 -0.09815657
0.0020757 -0.02422147 -0.10850225 -0.00387743 0.0056321286 0.07677295 0.05381364 0.02124099
0.027888084 0.031804223 -0.021436075 0.019019544 0.009013359 -0.0027006078 0.07740814 0.0015305817
0.035734873 0.020129694 -0.02075895 0.055274524 -0.06294701 0.02143474 -0.011720676 0.07072305
0.0506702 0.07240796 0.006172775 0.07823925 0.0317828 0.040680952 0.09052164 -0.05970275
0.041304003 -0.03181233 -0.03406508 0.03574565 -0.014040192 0.050260074 -0.061954044 -0.04074491
-0.020267883 -0.0046761357 -0.021537643 0.04238852 -0.040068388 0.035028394 0.067112125 0.06272302
0.03989533 -0.043096583 -0.09943663 -0.06814025 -0.12494879 -0.03354516 -0.04101308 0.018654143
-0.002537601 0.015040372 0.043675914 0.0058182883 0.06217138 -0.05006736 0.039654814 -0.038352497
-0.023030886 -0.09281496 -0.0047203526 -0.018503316 -0.020900955 -0.050989296 0.021806445 0.054808944
-0.077327065 -0.014590775 0.123919554 0.016133223 0.04178602 -0.040028457 -0.054411173 -0.03628297
0.08189728 0.02648052 0.017356519 0.123179354 0.0025918777 -0.018644232 0.041086156 0.04404716
-0.006035117 -0.094576105 0.04728871 0.011366714 0.01479313 -0.026687142 -0.017592195 -0.07281753
0.096520506 0.059087895 -0.030443212 0.041977175 0.07725165 0.070832714 -0.06784484 -0.019052396
-0.11835155 0.042678423 -0.09571683 0.009126011 0.012627692 -0.058394484 -0.09588955 -0.031114738
0.071976334 0.0062886206 -0.034820266 0.04154586 -0.0494674 0.060263485 0.046193127 0.10647162
-0.009080899 -0.03503257 0.018383617 0.04762515 -0.069814205 -0.03689112 -0.020839669 0.006198761
-0.02695846 -0.07349526 -0.06500779 -0.015033557 0.00969131 0.0143352235 -0.0068906927 0.02387139
0.013066039 -0.046234142 0.07083486 -0.13151821 -0.10577483 -0.057731047 -0.08040115 -0.10937515
-0.13562985 -0.06747218 0.035055965 0.0008305003 -0.0020126593 -0.009867315 0.017732328 -0.007097804
00000000: 974a 6cbd 47ee 433c f5e6 9bbd b28f 7fbd
00000010: a338 da3c cb53 bc3c 81bd 113d b69c 3cbc
00000020: 2c72 973b 7a0a 7d3c 1b5b 48ba e43a 1abd
00000030: e043 5b3d cc82 88bd 2802 fcbc 4157 c93c
00000040: 859b b43a 02ce 253d 2efa 48bd 3fdd 0ebd
00000050: b49f 76bd fd13 7e3d 22a1 d2bc 5a5a 85bd
00000060: 8b60 6a3d 5ae8 f5bc 71ce 6ebd a0f2 d6bc
00000070: e04c 11bd d720 1e3d ef8d 883c a5bd 9bbd
00000080: dbea 49bd 0582 cf3b c4df a4bc d069 57bd
00000090: 4e63 ae3d 39ea 343d 3c7c 9b3c d8a8 35bd
000000a0: 7467 af3d cb23 30bd cae6 77bd 8f85 c13a
000000b0: f5e4 c5bd 4d03 a6bd e573 a2bb e26a d9bc
000000c0: d4f2 27bd e8e2 d8bc b4b1 913d acc5 f6bc
000000d0: b008 08bd d508 8d3c 4a89 2ebb 9a92 253d
000000e0: 550d 973d 7e46 1c3c 3cbc 153c 5cd6 733d
000000f0: 13aa 52ba 7b8b 5a3d d4ff 1d3c 8b0d 35bd
00000100: 68e4 0bbc aebf 35bd e1bc 9cbd ad1f 73bd
00000110: 2cbd 7abd 7c8a 90bd b00d 5fbd 95cd ce3a
00000120: 1df9 383c 85b7 25bd 152b 8fbd d5b6 66bd
00000130: 0c80 1fbd 68b0 aabd 33ad d1bd 5035 ec3b
00000140: 8584 67bd f489 853d acb6 c33c 2567 05bd
00000150: 7332 933d a150 81bc df60 83bd 213a 5ebc
00000160: 9003 963d 77c7 d4bc d42d 123d ab6d 8b3d
00000170: 928f bc3c ee4f 38bd 1412 043d 0254 503d
00000180: 319d 393d 2531 bf3c 1e12 2b3b 2374 f9bd
00000190: 733e 10be 398f 27bd 2d10 713c 5006 c9bd
000001a0: 7808 083b 1b6c c6bc 6d36 debd 7b1c 7ebb
000001b0: b88d b83b 233b 9d3d b16b 5c3d 9601 ae3c
000001c0: 8d75 e43c 2545 023d b59a afbc e0ce 9b3c
000001d0: c5ac 133c aefc 30bb 2988 9e3d cd9d c83a
000001e0: bb5e 123d 07e7 a43c ac0e aabc 8a67 623d
000001f0: 5dea 80bd e897 af3c 1408 40bc 3fd7 903d
00000200: 8e8b 4f3d a04a 943d fd44 ca3b e63b a03d
00000210: ae2e 023d 12a1 263d 6963 b93d df8a 74bd
00000220: 632e 293d a54d 02bd d387 0bbd 086a 123d
00000230: d508 66bc 82dd 4d3d 86c3 7dbd 22e4 26bd
00000240: d508 a6bc 453a 99bb b66f b0bc 969f 2d3d
00000250: c01e 24bd ef79 0f3d 1572 893d ed74 803d
00000260: 4969 233d 0b86 30bd 6fa5 cbbd 1e8d 8bbd
00000270: 27e5 ffbd a666 09bd 55fd 27bd 93d0 983c
00000280: e14d 26bb e46b 763c 84e5 323d 57a7 be3b
00000290: 6ba7 7e3d 6f13 4dbd 166d 223d 8217 1dbd
000002a0: 45ab bcbc c515 bebd 30ad 9abb 4494 97bc
000002b0: 7b38 abbc 27da 50bd 6ea3 b23c 587f 603d
000002c0: a75d 9ebd 250e 6fbc 89c9 fd3d d229 843c
000002d0: d127 2b3d e1f4 23bd 40de 5ebd 749d 14bd
000002e0: c3b9 a73d aded d83c 422f 8e3c 7545 fc3d
000002f0: 7edc 293b cabb 98bc f549 283d cb6a 343d
00000300: 3bc2 c5bb 1eb1 c1bd ceb1 413d 743b 3a3c
00000310: e25e 723c fe9e dabc 821d 90bc 5b21 95bd
00000320: 8bac c53d 2606 723d 0b64 f9bc 42f0 2b3d
00000330: 1d36 9e3d be10 913d 3cf2 8abd c513 9cbc
00000340: 4c62 f2bd 92cf 2e3d 2f07 c4bd 4485 153c
00000350: 61e4 4e3c 0e2f 6fbd be61 c4bd 56e4 febc
00000360: 5468 933d c610 ce3b b29f 0ebd fe2b 2a3d
00000370: 549e 4abd d8d6 763d 0135 3d3d cb0d da3d
00000380: 0dc8 14bc 507e 0fbd 3d99 963c 9712 433d
00000390: c0fa 8ebd 251b 17bd f4b7 aabc fa1e cb3b
000003a0: fdd7 dcbc af84 96bd ce22 85bd 4f4f 76bc
000003b0: 4dc8 1e3c 49de 6a3c 52cb e1bb ef8d c33c
000003c0: f112 563c 0360 3dbd de11 913d b6ac 06be
000003d0: 79a0 d8bd 6477 6cbd 5ca9 a4bd 1400 e0bd
000003e0: 8de2 0abe db2e 8abd d896 0f3d efb5 593a
000003f0: d2e6 03bb 85aa 21bc 6343 913c b294 e8bb

cnn.conv3_x.0.residual_function.4.weight f4 [16]
0.91196984 1.0083681 0.97682476 1.0057329 1.0297064 1.0465597 0.98797286 1.0103772
1.0052857 0.97203636 0.99855804 1.0193309 0.9909991 1.042234 0.97612125 1.0198627
00000000: db76 693f 3512 813f 3011 7a3f dbbb 803f
00000010: 6bcd 833f abf5 853f caeb 7c3f 0a54 813f
00000020: 34ad 803f 60d7 783f 80a1 7f3f 6f79 823f
00000030: 1eb2 7d3f ec67 853f 15e3 793f dc8a 823f

cnn.conv3_x.0.residual_function.4.bias f4 [16]
-0.048153833 0.007935194 -0.0016397826 -0.1612309 -0.06626845 -0.14594989 -0.111798175 -0.011175679
-0.14478943 -0.0048616156 -0.17332605 0.009515088 -0.06723116 -0.030811619 -0.19365457 -0.12896521
00000000: f43c 45bd 9e02 023c f9ed d6ba b719 25be
00000010: c1b7 87bd e373 15be 71f6 e4bd 321a 37bc
00000020: ae43 14be 304e 9fbb 627c 31be 2ce5 1b3c
00000030: 7eb0 89bd a668 fcbc 624d 46be 750f 04be

cnn.conv3_x.0.residual_function.4.running_mean f4 [16]
-0.23586705 -0.20909414 -0.018518923 0.024005877 0.1995998 0.2072823 0.03275984 0.023362089
0.027929278 -0.010988505 -0.071775936 0.08657303 0.0556259 -0.014256435 0.06659618 0.18321268
00000000: 2287 71be c61c 56be ffb4 97bc f9a7 c43c
00000010: e463 4c3e d041 543e 2f2f 063d da61 bf3c
00000020: f1cb e43c 2109 34bc 43ff 92bd 334d b13d
00000030: fcd7 633d d393 69bc 9463 883d 1b9c 3b3e

cnn.conv3_x.0.residual_function.4.running_var f4 [16]
0.1761805 0.35658702 0.2712894 0.19184223 0.18368495 0.16263448 0.32682282 0.3678588
0.26164138 0.17727248 0.313655 0.20405918 0.48620617 0.35863984 0.27078396 0.1970709
00000000: a968 343e 9392 b63e 72e6 8a3e 4a72 443e
00000010: e817 3c3e a789 263e 5255 a73e fd57 bc3e
00000020: dcf5 853e eb86 353e 6397 a03e e4f4 503e
00000030: 04f0 f83e a49f b73e 32a4 8a3e f4cc 493e

cnn.conv3_x.0.shortcut.0.weight f4 [16, 10, 1, 1]
0.04558543 0.14649652 0.2360867 0.1490311 0.19867626 -0.118779175 -0.29326314 -0.0047940766
-0.14284539 0.2730816 0.064806715 0.18207061 0.30180958 -0.010434441 0.12042647 0.00951447
0.30600145 -0.06560694 -0.14342642 0.09806382 -0.1815469 0.22348802 -0.12291614 -0.12530273
0.1660379 0.26878512 0.004983066 -0.22017598 -0.104048334 0.18625087 0.05457898 0.14252432
0.30728883 -0.21350707 0.025669923 -0.22230068 0.16762212 0.12502687 0.14261574 0.119100675
-0.116032526 -0.13978359 -0.1734815 -0.16640998 -0.03314165 -0.10605078 -0.16100629 0.026669307
0.07097762 -0.3122406 0.17236687 -0.19005865 -0.3052955 0.34518465 0.07213944 0.042428564
-0.12468206 -0.13490511 0.08631866 0.22961341 0.20822853 -0.0219003 -0.13229078 0.074270524
0.2850059 0.040407505 0.24962643 -0.22028334 0.34351283 -0.051681127 0.1043645 0.30343243
-0.2143729 0.010754049 -0.0017769769 -0.18850814 0.19042206 -0.1819447 0.009254006 0.046986543
-0.13856806 0.23388217 0.017679347 0.23199835 0.33452895 -0.045456745 0.13604032 0.30956268
-0.20884219 -0.07316182 -0.27607316 -0.118416466 0.11698813 -0.08371233 -0.28118736 0.2662447
0.3483225 -0.11183262 -0.11569193 -0.18769886 0.20070451 -0.018981164 -0.20115003 -0.14656997
-0.061742563 0.1810408 0.10392825 0.27214813 0.01952712 -0.3118037 -0.27405888 -0.08750074
-0.18989135 0.027734082 -0.245884 0.06664773 0.048685364 -0.11235382 -0.024158565 -0.1711398
0.21179405 0.02855504 -0.1371091 0.21990106 -0.16926156 -0.18042886 0.17034453 -0.16836882
-0.2593169 -0.048554365 0.26137862 -0.2755688 -0.07660668 0.3051615 -0.09610205 -0.1294627
-0.06097377 -0.20108166 0.2401769 -0.15690516 0.11424574 0.09531948 0.32150948 -0.20144911
-0.17288783 0.30588746 0.2155593 0.21653669 0.09211693 0.07925487 0.05901171 -0.24663696
0.19427007 0.09052073 0.33396912 -0.076161824 0.20919053 -0.027744407 -0.10264159 0.2678456
00000000: cab7 3a3d 2f03 163e b6c0 713e 9c9b 183e
00000010: ca71 4b3e 7f42 f3bd 9626 96be a117 9dbb
00000020: 1046 12be 5ad1 8b3e 62b9 843d b870 3a3e
00000030: c986 9a3e 38f5 2abc 27a2 f63d 94e2 1b3c
00000040: 39ac 9c3e ee5c 86bd 60de 12be afd5 c83d
00000050: 6ee7 39be 0bda 643e 75bb fbbd 5c4f 00be
00000060: d705 2a3e 349e 893e fd48 a33b d075 61be
00000070: 4b17 d5bd 8cb8 3e3e 358e 5f3d e5f1 113e
00000080: f654 9d3e 99a1 5abe bb49 d23c caa2 63be
00000090: 22a5 2b3e 0b07 003e dc09 123e 0eeb f33d
000000a0: 76a2 edbd 6e23 0fbe 22a5 31be 6167 2abe
000000b0: 8abf 07bd 2731 d9bd d5de 24be 9779 da3c
000000c0: b75c 913d 00de 9fbe f180 303e bc9e 42be
000000d0: b14f 9cbe 0bbc b03e d8bd 933d 93c9 2d3d
000000e0: 4f59 ffbd 9124 0abe d6c7 b03d c71f 6b3e
000000f0: dc39 553e 4268 b3bc 3c77 07be 251b 983d
00000100: 4bec 913e 5782 253d 129e 7f3e f591 61be
00000110: eae0 af3e 97af 53bd 0ebd d53d 7f5b 9b3e
00000120: 9284 5bbe c031 303c 73e9 e8ba 4708 41be
00000130: 00fe 423e b64f 3abe 1d9e 173c f674 403d
00000140: c9e4 0dbe cf7e 6f3e 47d4 903c fa90 6d3e
00000150: 6147 ab3e da30 3abd 274e 0b3e 007f 9e3e
00000160: bada 55be ddd5 95bd 7659 8dbe 5584 f2bd
00000170: 7997 ef3d 5f71 abbd caf7 8fbe 3a51 883e
00000180: 5457 b23e 8008 e5bd e4ef ecbd 2134 40be
00000190: 7c85 4d3e 637e 9bbc 46fa 4dbe 7016 16be
000001a0: c5e5 7cbd c262 393e 56d8 d43d 0057 8b3e
000001b0: 57f7 9f3c bca4 9fbe 7251 8cbe 9733 b3bd
000001c0: e172 42be 9632 e33c 04c9 7bbe 9b7e 883d
000001d0: 4e6a 473d c219 e6bd 2fe8 c5bc 463f 2fbe
000001e0: 8ae0 583e 42ec e93c 5466 0cbe be2d 613e
000001f0: e752 2dbe 58c2 38be cc6e 2e3e e068 2cbe
00000200: 2fc5 84be f1e0 46bd 6bd3 853e 5b17 8dbe
00000210: f7e3 9cbd 213e 9c3e 27d1 c4bd df91 04be
00000220: a2bf 79bd 5ae8 4dbe eff0 753e bfab 20be
00000230: acf9 e93d dc36 c33d e49c a43e ad48 4ebe
00000240: 8209 31be 489d 9c3e 94bb 5c3e cbbb 5d3e
00000250: cda7 bc3d 6150 a23d 43b6 713d 668e 7cbe
00000260: bcee 463e ef62 b93d 00fe aa3e bbfa 9bbd
00000270: 0b36 563e 3d48 e3bc c135 d2bd 0f23 893e

cnn.conv3_x.0.shortcut.1.weight f4 [16]
0.98820645 0.9899402 0.9644409 1.0030476 0.93604976 0.96260893 0.94761354 0.9711123
0.98584634 0.8922186 0.96075016 0.89438885 1.0276781 0.9461938 1.0481116 1.0061151
00000000: 19fb 7c3f b96c 7d3f 99e5 763f dd63 803f
00000010: f5a0 6f3f 8a6d 763f cd96 723f d19a 783f
00000020: 6d60 7c3f 7068 643f b9f3 753f abf6 643f
00000030: f58a 833f c239 723f 8528 863f 61c8 803f

cnn.conv3_x.0.shortcut.1.bias f4 [16]
-0.018319562 0.029651701 -0.06160489 -0.11181853 -0.17190117 -0.10870817 -0.07018883 -0.009909292
-0.080603726 -0.09946568 -0.06413635 -0.112995856 -0.060028724 -0.07537648 -0.12305391 -0.08266378
00000000: e812 96bc 20e8 f23c 6955 7cbd 1d01 e5bd
00000010: dc06 30be 64a2 debd 29bf 8fbd 955a 22bc
00000020: 9113 a5bd aab4 cbbd eb59 83bd 5f6a e7bd
00000030: aee0 75bd fc5e 9abd b003 fcbd a14b a9bd

cnn.conv3_x.0.shortcut.1.running_mean f4 [16]
0.07718662 0.13097067 0.04807676 0.0973557 -0.22029449 0.067935616 0.18207107 -0.00030176603
0.12220362 -0.07995143 0.019071989 -0.16827859 -0.119036056 -0.017800363 0.2427656 0.075994074
00000000: 0514 9e3d 2d1d 063e 23ec 443d 6d62 c73d
00000010: e194 61be d421 8b3d d770 3a3e 5a36 9eb9
00000020: e445 fa3d 93bd a3bd dc3c 9c3c 3951 2cbe
00000030: 2dc9 f3bd 11d2 91bc 8c97 783e c8a2 9b3d

cnn.conv3_x.0.shortcut.1.running_var f4 [16]
0.22140323 0.26433718 0.17821702 0.24308367 0.42842364 0.34941292 0.16174588 0.11653701
0.2938014 0.20831603 0.1389463 0.23042613 0.31195307 0.44275367 0.38290137 0.16103996
00000000: 87b7 623e 3457 873e 867e 363e edea 783e
00000010: 585a db3e 40e6 b23e b6a0 253e f5aa ee3d
00000020: 236d 963e cc50 553e f047 0e3e d4f4 6b3e
00000030: 50b8 9f3e 9cb0 e23e a60b c43e a9e7 243e

cnn.conv4_x.0.residual_function.0.weight f4 [24, 16, 3, 3]
-0.043032486 0.018093007 -0.011149511 -0.058465723 0.014576928 0.019200759 0.034205608 0.0299293
0.0353993 -0.03583651 -0.037597924 0.011780451 -0.078216724 0.041241128 -0.02625675 -0.013193602
-0.111995116 0.0033212777 -0.0855334 0.01689345 0.021754436 -0.020441573 -0.023372045 0.06418254
-0.08293435 0.03376948 -0.019277532 0.018048838 0.0183523 0.041717354 0.07167134 0.021039225
-0.002961382 -0.08838686 -0.020897303 0.07132131 -0.09379288 -0.0683065 0.025430102 -0.056243427
0.0047224313 -0.036598437 0.07149522 -0.08722159 -0.10998626 -0.07961932 -0.05077189 -0.031246258
-0.09194871 0.014162562 0.029507296 0.078491546 -0.0726362 -0.014584371 -0.04689349 0.028943243
0.064218275 -0.060851034 0.0070823464 0.04126207 -0.06748083 -0.062761955 -0.02383304 -0.010153735
0.014441541 -0.012624407 -0.02091497 -0.0654804 0.0436629 0.029280782 -0.017232616 -0.091120854
0.055954143 0.011288226 0.018954158 -0.03461054 0.08888414 0.034717266 -0.031172363 -0.07427462
-0.061528727 -0.021452997 -0.013234253 0.0015786734 0.038741317 -0.03838109 -0.030692946 0.030893005
0.01105392 -0.10175361 -0.058660638 0.0374135 0.04138949 0.02902626 0.021692446 0.007411601
-0.06516814 -0.043717314 -0.0034548454 -0.09416975 -0.038321827 -0.021240357 -0.040467113 -0.056119204
-0.019623538 -0.09790643 -0.049768455 -0.031089175 0.028430097 -0.017194591 -0.036617283 -0.07804777
-0.09328864 -0.07894152 -0.049317278 -0.008435011 -0.02746105 0.028480282 0.06805914 -0.018392535
0.06278971 -0.049503595 -0.022891842 0.0364401 -0.089492425 -0.07529799 -0.02290358 0.028975204
0.09213193 -0.008050161 0.06539166 0.051796332 0.010914109 -0.09179728 0.054867413 -0.061578725
0.041246377 0.06676497 -0.004747831 0.006190744 0.0028084063 -0.03931043 -0.043866076 0.026949992
0.07315689 0.0049276548 0.019530647 0.03570505 0.04731251 0.0014689184 0.05800284 -0.0297894
0.049001902 0.07912256 -0.031319268 0.009227032 0.055822216 -0.05162706 0.06428881 0.044084653
-0.021233562 0.023623029 0.020858726 0.01132615 0.07090117 0.0524172 0.06298861 0.06646973
0.043694686 -0.0020980476 -0.022482377 0.097610585 0.060527347 0.027887758 -0.007907368 -0.049565975
0.029102147 -0.006237623 0.106894664 -0.03145203 0.0808543 -0.014075762 0.06803005 0.040839124
0.041060194 -0.06567882 0.09370035 0.1068196 -0.055914298 0.010073126 0.034177452 -0.06896677
-0.046409514 0.031287868 0.049131576 -0.042174783 -0.004576676 -0.06434833 0.040175654 0.052671477
0.0047471877 0.06703328 0.0035172633 -0.057031147 0.008314901 0.029043695 -0.088078335 -0.0014550042
0.06313125 0.03432972 0.05018966 0.017934553 0.029322168 -0.006563762 0.054076374 0.07559917
0.12145663 -0.039517894 -0.045342118 -0.017136235 0.033716332 0.015229377 -0.027162736 0.049497813
-0.009578156 -0.024990285 -0.00930594 0.088808365 0.06282035 0.048274722 -0.0028409525 0.062974386
0.011952705 0.07220203 0.035463553 -0.037365004 0.036721002 -0.049351636 -0.065836586 0.061937314
0.041207485 -0.05637367 -0.021689532 0.036980912 0.1096839 0.088528685 0.058344375 -0.011851123
-0.0005578695 0.0014619349 0.05752896 0.04837383 0.0023360655 0.063080326 7.32929e-06 0.012492651
00000000: d542 30bd c937 943c 70ac 36bc c179 6fbd
00000010: 11d4 6e3c e94a 9d3c 2e1b 0c3d 4b2e f53c
00000020: dbfe 103d 4ec9 12bd 4800 1abd cb02 413c
00000030: 1730 a0bd 75ec 283d 6518 d7bc fa29 58bc
00000040: b25d e5bd cba9 593b 232c afbd 2264 8a3c
00000050: 5c36 b23c 1675 a7bc bb76 bfbc 2372 833d
00000060: 7cd9 a9bd de51 0a3d eaeb 9dbc 28db 933c
00000070: 9057 963c d1df 2a3d 6cc8 923d 745a ac3c
00000080: bf13 42bb 2c04 b5bd d230 abbc e810 923d
00000090: 7b16 c0bd 47e4 8bbd ca52 d03c 825f 66bd
000000a0: a0be 9a3b 3ee8 15bd 166c 923d 3ca1 b2bd
000000b0: 7a40 e1bd 740f a3bd 2ff6 4fbd 27f8 ffbc
000000c0: 9b4f bcbd 170a 683c 49b9 f13c 2dc0 a03d
000000d0: 4ac2 94bd 49f3 6ebc 6313 40bd 611a ed3c
000000e0: df84 833d ef3e 79bd 0713 e83b 6b02 293d
000000f0: 6433 8abd 5789 80bd 823d c3bc da5b 26bc
00000100: 379c 6c3c 9ad6 4ebc df55 abbc 971a 86bd
00000110: ded7 323d 40de ef3c 6a2b 8dbc 929d babd
00000120: 2c30 653d 40f2 383c c045 9b3c c8c3 0dbd
00000130: e308 b63d b133 0e3d 2f5d ffbc 4b1d 98bd
00000140: 8c05 7cbd 32be afbc 7bd4 58bc 7deb ce3a
00000150: 37af 1e3d 7d35 1dbd c66f fbbc 5413 fd3c
00000160: 801b 353c 3264 d0bd 2346 70bd e63e 193d
00000170: 0788 293d 7bc8 ed3c 5bb4 b13c 04dd f23b
00000180: e076 85bd ed10 33bd b06a 62bb 12dc c0bd
00000190: 59f7 1cbd 4200 aebc d8c0 25bd 40dd 65bd
000001a0: 8bc1 a0bc 2b83 c8bd 02da 4bbd baae febc
000001b0: 3ce6 e83c acdb 8cbc 01fc 15bd 82d7 9fbd
000001c0: 1d0e bfbd 17ac a1bd ea00 4abd 0033 0abc
000001d0: fff5 e0bc 7b4f e93c 9762 8b3d f1ab 96bc
000001e0: e497 803d 48c4 4abd ac87 bbbc 3742 153d
000001f0: ce47 b7bd d535 9abd 4aa0 bbbc 685d ed3c
00000200: aaaf bc3d d3e4 03bc 10ec 853d 6428 543d
00000210: 17d1 323c 3600 bcbd a7bc 603d f939 7cbd
00000220: f6f1 283d 13bc 883d b193 9bbb badb ca3b
00000230: 3d0d 383b f903 21bd eaac 33bd 3bc6 dc3c
00000240: 48d3 953d 2a78 a13b bcfe 9f3c 753f 123d
00000250: c3ca 413d b988 c03a 6394 6d3d e608 f4bc
00000260: 38b6 483d 020b a23d a248 00bd fa2c 173c
00000270: d6a5 643d e576 53bd daa9 833d 1c92 343d
00000280: 02f2 adbc 1585 c13c ebdf aa3c 5191 393c
00000290: a234 913d 6bb3 563d 2c00 813d 4821 883d
000002a0: 33f9 323d 667f 09bb f62c b8bc 0fe8 c73d
000002b0: 86eb 773d de74 e43c e88d 01bc b105 4bbd
000002c0: a067 ee3c f964 ccbb 97eb da3d d8d3 00bd
000002d0: f096 a53d 069e 66bc 5753 8b3d ed46 273d
000002e0: bc2e 283d 9e82 86bd f8e5 bf3d 3cc4 da3d
000002f0: 6406 65bd c109 253c a8fd 0b3d 733e 8dbd
00000300: e717 3ebd b527 003d 313e 493d 77bf 2cbd
00000310: f1f7 95bb 0fc9 83bd 3a8f 243d 0cbe 573d
00000320: 4c8e 9b3b bf48 893d e381 663b 7e99 69bd
00000330: 393b 083c 0bed ed3c 6a62 b4bd d7b5 beba
00000340: f54a 813d 529d 0c3d ac93 4d3d 7ceb 923c
00000350: 0b35 f03c d414 d7bb 307f 5d3d bdd3 9a3d
00000360: 41be f83d 84dd 21bd a8b8 39bd 4a61 8cbc
00000370: 231a 0a3d a384 793c 6384 debc 38be 4a3d
00000380: b3ed 1cbc 6db8 ccbc f177 18bc 29e1 b53d
00000390: f5a7 803d b7bb 453d 462f 3abb b7f8 803d
000003a0: 47d5 433c a8de 933d 3b42 113d 0c0c 19bd
000003b0: c368 163d f124 4abd 55d5 86bd fbb1 7d3d
000003c0: 2ec9 283d 14e8 66bd 3fae b1bc 4c79 173d
000003d0: f4a1 e03d 874e b53d 83fa 6e3d 362b 42bc
000003e0: fd3d 12ba 659e bf3a 7da3 6b3d a323 463d
000003f0: ad18 193b 4230 813d 1fee f536 faad 4c3c

cnn.conv4_x.0.residual_function.1.weight f4 [24]
1.0311896 0.9478313 1.0212665 0.9707134 1.032078 1.0584935 1.0225 1.0108285
0.9517701 0.9737747 0.9903596 1.0291414 1.0292214 1.0528063 0.9687415 0.9546247
0.98309064 1.0102849 0.9828691 0.93838143 1.0167019 1.0324819 1.0264082 1.0452956
00000000: 05fe 833f 12a5 723f dcb8 823f ac80 783f
00000010: 221b 843f b77c 873f 48e1 823f d462 813f
00000020: 35a7 733f 4c49 793f 3588 7d3f e8ba 833f
00000030: 87bd 833f 5bc2 863f 71ff 773f 4962 743f
00000040: d4ab 7b3f 0451 813f 4f9d 7b3f c439 703f
00000050: 4a23 823f 5e28 843f 5861 833f 3fcc 853f

cnn.conv4_x.0.residual_function.1.bias f4 [24]
-0.01725674 0.03406369 6.6512875e-05 -0.102874435 -0.01993871 0.023197109 -0.002106019 -0.013798313
-0.07578532 -0.031332817 0.056887336 -0.0081803 -0.059125986 0.026884504 -0.062777005 -0.19744462
-0.041028704 -0.047505766 -0.09477547 0.014420405 -0.07114219 -0.0489631 -0.044290308 0.03219996
00000000: 025e 8dbc 5e86 0b3d d47c 8b38 d5af d2bd
00000010: 8156 a3bc dd07 be3c 2305 0abb 5212 62bc
00000020: 5535 9bbd d756 00bd b202 693d aa06 06bc
00000030: 172e 72bd e43c dc3c 3b91 80bd ec2e 4abe
00000040: b70d 28bd 6895 42bd a419 c2bd 9043 6c3c
00000050: ffb2 91bd 888d 48bd c169 35bd 1be4 033d

cnn.conv4_x.0.residual_function.1.running_mean f4 [24]
-0.528566 0.8679253 -0.5149395 -0.18352453 -0.76204556 -0.637733 -0.35795867 -0.56921524
-0.09119889 -0.46661964 0.8976188 -0.5633883 -0.44009435 -0.634588 -0.09147684 -0.21939358
-0.19320177 -0.20171273 -0.029591285 0.8003211 -0.26339954 -0.33504927 -0.45618296 -0.5901376
00000000: 1a50 07bf 5a30 5e3f 13d3 03bf dbed 3bbe
00000010: 6b15 43bf 7842 23bf 5c46 b7be 17b8 11bf
00000020: 7cc6 babd c5e8 eebe 58ca 653f 373a 10bf
00000030: 0c54 e1be 5c74 22bf 3658 bbbd b6a8 60be
00000040: afd6 45be c88d 4ebe 6c69 f2bc d8e1 4c3f
00000050: 4edc 86be 948b abbe d090 e9be 4213 17bf

cnn.conv4_x.0.residual_function.1.running_var f4 [24]
2.0982552 2.4771805 2.2502775 1.9545537 1.7692775 1.1958843 1.8838314 1.7954738
0.9974738 2.1770818 2.1923409 1.8442888 1.9250164 2.7646096 1.7259915 1.7371701
1.0293411 1.4709305 0.9882588 3.0190399 1.7265352 1.8023213 1.8632272 2.1326487
00000000: d049 0640 208a 1e40 8c04 1040 d12e fa3f
00000010: af77 e23f bd12 993f 6321 f13f 16d2 e53f
00000020: 715a 7f3f 4f55 0b40 504f 0c40 a811 ec3f
00000030: f066 f63f 5def 3040 4aed dc3f 975b de3f
00000040: 73c1 833f 7347 bc3f 87fe 7c3f f337 4140
00000050: 1bff dc3f 77b2 e63f 3b7e ee3f 517d 0840

cnn.conv4_x.0.residual_function.3.weight f4 [24, 24, 3, 3]
0.043110847 0.06655981 -0.035180174 0.038270358 0.0020955796 0.037617 0.06942899 0.03582884
0.004491067 0.023388559 0.0013634685 -0.07864593 -0.0454418 0.023602787 -0.0003887128 -0.002373612
-0.046683088 -0.037193604 0.079881854 0.056270417 0.02078148 0.021753771 -0.021372657 -0.015113754
0.05925432 0.040394995 0.008310189 0.04843826 0.07189923 0.07798727 0.04269681 0.041157484
0.04565728 0.02274776 0.030766688 0.0068741567 -0.009415207 0.04627607 0.05115364 0.065257184
0.013176303 -0.06147309 0.013603655 0.053904146 -0.03004782 0.01733745 -0.008450713 -0.011113931
0.03721974 0.0075392155 -0.024341345 -0.008534465 0.011473257 -0.054517433 0.050153993 -0.039206695
0.011035916 0.016040869 -0.020476433 0.015594697 0.099940136 0.000735036 0.04839167 -0.013338109
-0.026599888 -0.0049542817 -0.0092455475 0.023666762 -0.002490206 0.018321145 0.05726965 -0.06018177
-0.019923175 -0.00011266915 0.080606624 0.013377759 0.037526008 0.08220174 0.024226988 0.029598165
0.037728682 -0.057827275 -0.028404485 0.020345373 0.072418064 -0.012098009 0.034165006 0.027874572
0.05647268 0.014276339 -0.067241356 0.0015332175 -0.028992623 0.032171015 0.025951393 -0.016567498
-0.024217896 -0.05564486 -0.06298035 0.020860795 0.083997 0.023321878 0.042511463 0.052328993
0.050257824 0.0048696394 -0.025191884 -0.05573912 -0.020201508 0.005076002 0.08051246 0.020412115
0.100839585 0.033481777 -0.041652016 0.046353746 -0.015573002 0.033581074 0.035629984 0.0847458
0.05251882 0.014900875 0.055068634 -0.007755607 0.05479121 -0.059363056 0.037896052 -0.0027119606
-0.011696846 0.045283772 0.040184285 0.00562712 0.08046633 0.064243294 0.064569935 -0.04530982
0.010090827 0.03841966 -0.018266 0.0583239 0.006422772 -0.030741576 0.08539784 0.012328057
0.028879272 0.011435722 0.014056867 -0.06798931 0.01808812 0.008598929 0.010333506 0.043431655
0.032210995 0.0040938207 -0.028763369 0.06464944 0.08813867 -0.040868327 -3.1323932e-05 0.01716385
0.0081524 0.016996725 0.05926456 0.059347343 -0.024786627 -0.013525234 0.015894525 0.020410093
-0.0025355918 0.06300553 0.0042724386 0.01793301 0.0056401505 -0.057600938 -0.053482726 0.021453848
-0.012645519 0.018005047 -0.04151841 0.028230524 0.09997137 0.03358476 -0.012661291 -0.0138380295
-0.023257796 0.07043418 0.058060884 0.061145976 0.039799992 0.065851614 0.12625024 0.009712025
-0.02840864 0.053040143 0.058547724 0.026250636 0.02099285 0.0077516795 0.04301986 -0.006972279
0.06436354 -0.023227 0.0690911 -0.01160429 -0.006691248 -0.044758957 -0.02822082 -0.03129499
-0.032017518 0.012938007 0.08520811 0.05500812 -0.0051062033 0.03982745 0.048315488 -0.054210722
-0.0034818281 0.01536076 0.04536018 0.088684924 -0.04769272 0.007886868 0.05169667 0.07439659
0.022558574 -0.043062918 0.043060325 -0.0737733 -0.054669626 -0.0055374526 -0.04374947 -0.017103784
-0.048263684 -0.04948371 -0.022578955 -0.030324679 0.0147255 0.010548675 -0.032935407 0.056711614
-0.11064927 0.03460572 0.07587093 0.055497833 -0.026008466 0.024668904 0.001716022 0.0045527085
0.033057265 0.038082685 -0.020491244 -0.012273132 0.05416498 0.001511895 -0.040527944 6.289689e-05
00000000: 0095 303d 8250 883d 1619 10bd 61c1 1c3d
00000010: fe55 093b 4914 1a3d c930 8e3d 43c1 123d
00000020: cd29 933b 5d99 bf3c 69b6 b23a 1e11 a1bd
00000030: 2e21 3abd a25a c13c 26cc cbb9 9a8e 1bbb
00000040: c436 3fbd 5258 18bd 1999 a33d cf7b 663d
00000050: ec3d aa3c f734 b23c b615 afbc ae9f 77bc
00000060: a8b4 723d 3975 253d 7527 083c 3267 463d
00000070: e73f 933d cab7 9f3d dae2 2e3d c094 283d
00000080: 2103 3b3d 8359 ba3c 6c0a fc3c 9b40 e13b
00000090: 3e42 1abc fa8b 3d3d 7b86 513d 8fa5 853d
000000a0: 6ce1 573c 35cb 7bbd dde1 5e3c 98ca 5c3d
000000b0: d926 f6bc 4507 8e3c dc74 0abc 3517 36bc
000000c0: ba73 183d 860b f73b 8067 c7bc 24d4 0bbc
000000d0: 54fa 3b3c ac4d 5fbd 466e 4d3d 3397 20bd
000000e0: fdcf 343c 2468 833c 31be a7bc e680 7f3c
000000f0: 6aad cc3d 6eaf 403a 5836 463d 1588 5abc
00000100: 02e8 d9bc 8757 a2bb a37a 17bc cce0 c13c
00000110: b932 23bb 3a16 963c 9593 6a3d 2981 76bd
00000120: ed35 a3bc ca48 ecb8 1615 a53d 632e 5b3c
00000130: dfb4 193d 6359 a83d ad77 c63c da77 f23c
00000140: 6489 1a3d 4bdc 6cbd 86b0 e8bc 57ab a63c
00000150: ec4f 943d ba36 46bc 9bf0 0b3d 3759 e43c
00000160: e64f 673d 4ee7 693c d6b5 89bd 3ef6 c83a
00000170: f081 edbc c1c5 033d 0498 d43c 90b8 87bc
00000180: 9c64 c6bc ddeb 63bd d7fb 80bd 42e4 aa3c
00000190: 9e06 ac3d 860d bf3c 8020 2e3d ed56 563d
000001a0: 26db 4d3d 7f91 9f3b 365f cebc b44e 64bd
000001b0: a27d a5bc 9754 a63b b7e3 a43d 4f37 a73c
000001c0: fc84 ce3d 3024 093d 4e9b 2abd 6ddd 3d3d
000001d0: e825 7fbc 4f8c 093d bff0 113d 358f ad3d
000001e0: f91d 573d cd22 743c a68f 613d bf22 febb
000001f0: bf6c 603d ad26 73bd e438 1b3d 26bb 31bb
00000200: 21a4 3fbc 7a7b 393d 4798 243d b463 b83b
00000210: 88cb a43d fd91 833d 3e3d 843d ca96 39bd
00000220: ff53 253c ef5d 1d3d 94a2 95bc 0be5 6e3d
00000230: 1e76 d23b c2d5 fbbc 10e5 ae3d 9efb 493c
00000240: 3994 ec3c e55c 3b3c c64e 663c fb3d 8bbd
00000250: 892d 943c 86e2 0c3c de4d 293c 64e5 313d
00000260: adef 033d 7525 863b 28a1 ebbc ed66 843d
00000270: 0c82 b43d 8c65 27bd d161 03b8 349b 8c3c
00000280: a591 053c b73c 8b3c 65bf 723d 3316 733d
00000290: 530d cbbc f198 5dbc 3c35 823c 1133 a73c
000002a0: 2c2c 26bb 0b09 813d d0ff 8b3b 3fe8 923c
000002b0: 03d1 b83b f6ee 6bbd b410 5bbd fbbf af3c
000002c0: 272f 4fbc 527f 933c 350f 2abd b343 e73c
000002d0: cabd cc3d 2c90 093d 4e71 4fbc e7b8 62bc
000002e0: 2287 bebc cc3f 903d 40d1 6d3d 3474 7a3d
000002f0: 5105 233d 36dd 863d be47 013e 2f1f 1f3c
00000300: 3cb9 e8bc 9f40 593d bdcf 6f3d 930b d73c
00000310: 33f9 ab3c cd01 fe3b 9835 303d b777 e4bb
00000320: 08d1 833d 8d46 bebc a27f 8d3d ec1f 3ebc
00000330: 4242 dbbb 2b55 37bd 592f e7bc 2d2f 00bd
00000340: cd24 03bd eff9 533c 9781 ae3d 3250 613d
00000350: f051 a7bb 1c22 233d 76e6 453d 100c 5ebd
00000360: 622f 64bb b2ab 7b3c 99cb 393d 71a0 b53d
00000370: 7159 43bd ec37 013c e3bf 533d 3d5d 983d
00000380: c2cc b83c be62 30bd 0660 303d 7516 97bd
00000390: 42ed 5fbd 8573 b5bb a532 33bd 3c1d 8cbc
000003a0: 24b0 45bd 6eaf 4abd 80f7 b8bc 766b f8bc
000003b0: 3943 713c 5ad4 2c3c 47e7 06bd 704a 683d
000003c0: 169c e2bd babe 0d3d 3862 9b3d b251 633d
000003d0: b50f d5bc 7116 ca3c 25ec e03a e32e 953b
000003e0: 0e67 073d 97fc 1b3d 41dd a7bc 3f15 49bc
000003f0: 19dc 5d3d c72a c63a a100 26bd 83e7 8338

cnn.conv4_x.0.residual_function.4.weight f4 [24]
1.0758933 1.0214442 0.98610187 1.0210123 0.95235956 1.0098381 0.99226725 1.005213
1.06508 1.1455321 1.016759 1.0299948 0.98935956 0.9557347 0.99947304 1.0214332
0.99393135 1.0641758 0.9870261 1.0372413 0.9701292 1.0150642 1.0568976 1.0061527
00000000: dfb6 893f afbe 823f 2c71 7c3f 88b0 823f
00000010: d6cd 733f 6042 813f 3a05 7e3f d2aa 803f
00000020: 8b54 883f cca0 923f 2925 823f dfd6 833f
00000030: ab46 7d3f 08ab 743f 77dd 7f3f 53be 823f
00000040: 4972 7e3f ea36 883f bead 7c3f 53c4 843f
00000050: 635a 783f a0ed 813f 6c48 873f 9dc9 803f

cnn.conv4_x.0.residual_function.4.bias f4 [24]
-0.13772312 -0.12616108 0.011526574 0.015556106 -0.12684622 -0.1276648 -0.14777796 -0.12901238
-0.1100951 -0.044958256 -0.0729826 -0.15068257 -0.18479678 -0.064961866 -0.1160203 -0.1472607
-0.122306496 -0.1155716 -0.11638517 -0.13033319 -0.047999058 -0.114453286 -0.11248655 -0.10054037
00000000: 4a07 0dbe 5f30 01be f5d9 3c3c 0adf 7e3c
00000010: fae3 01be 90ba 02be 1b53 17be d21b 04be
00000020: 8a79 e1bd 2626 38bd e777 95bd 884c 1abe
00000030: 5e3b 3dbe ba0a 85bd 0d9c edbd 82cb 16be
00000040: d47b fabd ceb0 ecbd 595b eebd 1076 05be
00000050: a99a 44bd 7c66 eabd 595f e6bd 1ce8 cdbd

cnn.conv4_x.0.residual_function.4.running_mean f4 [24]
0.7560702 0.33249885 -0.9208669 -0.965179 1.1117004 0.324144 0.5628338 0.7970821
1.2450256 1.0056525 1.0706596 0.62096083 0.20957169 -0.10560712 0.67452663 0.23279642
0.43946406 0.6061423 0.47653398 1.0046965 -0.24812582 0.89480656 1.018819 0.43092376
00000000: d18d 413f 4a3d aa3e efbd 6bbf f915 77bf
00000010: 334c 8e3f 34f6 a53e e015 103f 930d 4c3f
00000020: 005d 9f3f 39b9 803f 600b 893f 4af7 1e3f
00000030: f699 563e 8c48 d8bd c7ad 2c3f 2f62 6e3e
00000040: 6f01 e13e 242c 1b3f 43fc f33e e599 803f
00000050: b214 7ebe 0b12 653f a968 823f 0aa2 dc3e

cnn.conv4_x.0.residual_function.4.running_var f4 [24]
0.14232337 0.1440942 0.2000447 0.17023966 0.21612382 0.12860432 0.120754234 0.23674954
0.20525986 0.17493603 0.29486245 0.13528709 0.12184735 0.09370468 0.15414308 0.14977911
0.111310154 0.12757254 0.10125068 0.28818825 0.13450955 0.14885852 0.17561321 0.16283594
00000000: 38bd 113e 6e8d 133e 85d8 4c3e 4e53 2e3e
00000010: 904f 5d3e dab0 033e ff4d f73d 796e 723e
00000020: a42f 523e 6e22 333e 36f8 963e b388 0a3e
00000030: 1a8b f93d 3de8 bf3d afd7 1d3e b25f 193e
00000040: 94f6 e33d 60a2 023e 845c cf3d 698d 933e
00000050: dfbc 093e 5e6e 183e f3d3 333e 77be 263e
